{
  "nodes": [
    {
      "op": "null", 
      "name": "data", 
      "inputs": []
    }, 
    {
      "op": "null", 
      "name": "_conv_cv0_weight", 
      "inputs": []
    }, 
    {
      "op": "null", 
      "name": "_conv_cv0_bias", 
      "inputs": []
    }, 
    {
      "op": "cvm_op", 
      "name": "conv2d0", 
      "attrs": {
        "flatten_data": "0", 
        "func_name": "conv2d", 
        "num_inputs": "3", 
        "num_outputs": "1", 
        "op_attrs": ""
      }, 
      "inputs": [[0, 0, 0], [1, 0, 0], [2, 0, 0]]
    }, 
    {
      "op": "null", 
      "name": "const_var1", 
      "inputs": []
    }, 
    {
      "op": "cvm_op", 
      "name": "abs0", 
      "attrs": {
        "flatten_data": "1", 
        "func_name": "abs", 
        "num_inputs": "1", 
        "num_outputs": "1", 
        "op_attrs": ""
      }, 
      "inputs": [[3, 0, 0]]
    }, 
    {
      "op": "cvm_op", 
      "name": "max0", 
      "attrs": {
        "flatten_data": "0", 
        "func_name": "max", 
        "num_inputs": "1", 
        "num_outputs": "1", 
        "op_attrs": ""
      }, 
      "inputs": [[5, 0, 0]]
    }, 
    {
      "op": "cvm_op", 
      "name": "log20", 
      "attrs": {
        "flatten_data": "1", 
        "func_name": "log2", 
        "num_inputs": "1", 
        "num_outputs": "1", 
        "op_attrs": ""
      }, 
      "inputs": [[6, 0, 0]]
    }, 
    {
      "op": "null", 
      "name": "const_var7", 
      "inputs": []
    }, 
    {
      "op": "cvm_op", 
      "name": "broadcast_sub0", 
      "attrs": {
        "flatten_data": "1", 
        "func_name": "broadcast_sub", 
        "num_inputs": "2", 
        "num_outputs": "1", 
        "op_attrs": ""
      }, 
      "inputs": [[7, 0, 0], [8, 0, 0]]
    }, 
    {
      "op": "null", 
      "name": "const_var0", 
      "inputs": []
    }, 
    {
      "op": "cvm_op", 
      "name": "broadcast_max0", 
      "attrs": {
        "flatten_data": "1", 
        "func_name": "broadcast_max", 
        "num_inputs": "2", 
        "num_outputs": "1", 
        "op_attrs": ""
      }, 
      "inputs": [[9, 0, 0], [10, 0, 0]]
    }, 
    {
      "op": "cvm_op", 
      "name": "broadcast_left_shift0", 
      "attrs": {
        "flatten_data": "1", 
        "func_name": "broadcast_left_shift", 
        "num_inputs": "2", 
        "num_outputs": "1", 
        "op_attrs": ""
      }, 
      "inputs": [[4, 0, 0], [11, 0, 0]]
    }, 
    {
      "op": "cvm_op", 
      "name": "broadcast_div0", 
      "attrs": {
        "flatten_data": "0", 
        "func_name": "broadcast_div", 
        "num_inputs": "2", 
        "num_outputs": "1", 
        "op_attrs": ""
      }, 
      "inputs": [[3, 0, 0], [12, 0, 0]]
    }, 
    {
      "op": "cvm_op", 
      "name": "clip0", 
      "attrs": {
        "flatten_data": "1", 
        "func_name": "clip", 
        "num_inputs": "1", 
        "num_outputs": "1", 
        "op_attrs": ""
      }, 
      "inputs": [[13, 0, 0]]
    }, 
    {
      "op": "cvm_op", 
      "name": "relu0", 
      "attrs": {
        "flatten_data": "1", 
        "func_name": "relu", 
        "num_inputs": "1", 
        "num_outputs": "1", 
        "op_attrs": ""
      }, 
      "inputs": [[14, 0, 0]]
    }, 
    {
      "op": "null", 
      "name": "_conv_cv1_weight", 
      "inputs": []
    }, 
    {
      "op": "null", 
      "name": "_conv_cv1_bias", 
      "inputs": []
    }, 
    {
      "op": "cvm_op", 
      "name": "conv2d1", 
      "attrs": {
        "flatten_data": "0", 
        "func_name": "conv2d_1", 
        "num_inputs": "3", 
        "num_outputs": "1", 
        "op_attrs": ""
      }, 
      "inputs": [[15, 0, 0], [16, 0, 0], [17, 0, 0]]
    }, 
    {
      "op": "cvm_op", 
      "name": "abs1", 
      "attrs": {
        "flatten_data": "1", 
        "func_name": "abs", 
        "num_inputs": "1", 
        "num_outputs": "1", 
        "op_attrs": ""
      }, 
      "inputs": [[18, 0, 0]]
    }, 
    {
      "op": "cvm_op", 
      "name": "max1", 
      "attrs": {
        "flatten_data": "0", 
        "func_name": "max", 
        "num_inputs": "1", 
        "num_outputs": "1", 
        "op_attrs": ""
      }, 
      "inputs": [[19, 0, 0]]
    }, 
    {
      "op": "cvm_op", 
      "name": "log21", 
      "attrs": {
        "flatten_data": "1", 
        "func_name": "log2", 
        "num_inputs": "1", 
        "num_outputs": "1", 
        "op_attrs": ""
      }, 
      "inputs": [[20, 0, 0]]
    }, 
    {
      "op": "cvm_op", 
      "name": "broadcast_sub1", 
      "attrs": {
        "flatten_data": "1", 
        "func_name": "broadcast_sub", 
        "num_inputs": "2", 
        "num_outputs": "1", 
        "op_attrs": ""
      }, 
      "inputs": [[21, 0, 0], [8, 0, 0]]
    }, 
    {
      "op": "cvm_op", 
      "name": "broadcast_max1", 
      "attrs": {
        "flatten_data": "1", 
        "func_name": "broadcast_max", 
        "num_inputs": "2", 
        "num_outputs": "1", 
        "op_attrs": ""
      }, 
      "inputs": [[22, 0, 0], [10, 0, 0]]
    }, 
    {
      "op": "cvm_op", 
      "name": "broadcast_left_shift1", 
      "attrs": {
        "flatten_data": "1", 
        "func_name": "broadcast_left_shift", 
        "num_inputs": "2", 
        "num_outputs": "1", 
        "op_attrs": ""
      }, 
      "inputs": [[4, 0, 0], [23, 0, 0]]
    }, 
    {
      "op": "cvm_op", 
      "name": "broadcast_div1", 
      "attrs": {
        "flatten_data": "0", 
        "func_name": "broadcast_div", 
        "num_inputs": "2", 
        "num_outputs": "1", 
        "op_attrs": ""
      }, 
      "inputs": [[18, 0, 0], [24, 0, 0]]
    }, 
    {
      "op": "cvm_op", 
      "name": "clip1", 
      "attrs": {
        "flatten_data": "1", 
        "func_name": "clip", 
        "num_inputs": "1", 
        "num_outputs": "1", 
        "op_attrs": ""
      }, 
      "inputs": [[25, 0, 0]]
    }, 
    {
      "op": "cvm_op", 
      "name": "relu1", 
      "attrs": {
        "flatten_data": "1", 
        "func_name": "relu", 
        "num_inputs": "1", 
        "num_outputs": "1", 
        "op_attrs": ""
      }, 
      "inputs": [[26, 0, 0]]
    }, 
    {
      "op": "cvm_op", 
      "name": "max_pool2d0", 
      "attrs": {
        "flatten_data": "0", 
        "func_name": "max_pool2d", 
        "num_inputs": "1", 
        "num_outputs": "1", 
        "op_attrs": ""
      }, 
      "inputs": [[27, 0, 0]]
    }, 
    {
      "op": "null", 
      "name": "_conv_cv2_weight", 
      "inputs": []
    }, 
    {
      "op": "null", 
      "name": "_conv_cv2_bias", 
      "inputs": []
    }, 
    {
      "op": "cvm_op", 
      "name": "conv2d2", 
      "attrs": {
        "flatten_data": "0", 
        "func_name": "conv2d_2", 
        "num_inputs": "3", 
        "num_outputs": "1", 
        "op_attrs": ""
      }, 
      "inputs": [[28, 0, 0], [29, 0, 0], [30, 0, 0]]
    }, 
    {
      "op": "cvm_op", 
      "name": "abs2", 
      "attrs": {
        "flatten_data": "1", 
        "func_name": "abs_1", 
        "num_inputs": "1", 
        "num_outputs": "1", 
        "op_attrs": ""
      }, 
      "inputs": [[31, 0, 0]]
    }, 
    {
      "op": "cvm_op", 
      "name": "max2", 
      "attrs": {
        "flatten_data": "0", 
        "func_name": "max_1", 
        "num_inputs": "1", 
        "num_outputs": "1", 
        "op_attrs": ""
      }, 
      "inputs": [[32, 0, 0]]
    }, 
    {
      "op": "cvm_op", 
      "name": "log22", 
      "attrs": {
        "flatten_data": "1", 
        "func_name": "log2", 
        "num_inputs": "1", 
        "num_outputs": "1", 
        "op_attrs": ""
      }, 
      "inputs": [[33, 0, 0]]
    }, 
    {
      "op": "cvm_op", 
      "name": "broadcast_sub2", 
      "attrs": {
        "flatten_data": "1", 
        "func_name": "broadcast_sub", 
        "num_inputs": "2", 
        "num_outputs": "1", 
        "op_attrs": ""
      }, 
      "inputs": [[34, 0, 0], [8, 0, 0]]
    }, 
    {
      "op": "cvm_op", 
      "name": "broadcast_max2", 
      "attrs": {
        "flatten_data": "1", 
        "func_name": "broadcast_max", 
        "num_inputs": "2", 
        "num_outputs": "1", 
        "op_attrs": ""
      }, 
      "inputs": [[35, 0, 0], [10, 0, 0]]
    }, 
    {
      "op": "cvm_op", 
      "name": "broadcast_left_shift2", 
      "attrs": {
        "flatten_data": "1", 
        "func_name": "broadcast_left_shift", 
        "num_inputs": "2", 
        "num_outputs": "1", 
        "op_attrs": ""
      }, 
      "inputs": [[4, 0, 0], [36, 0, 0]]
    }, 
    {
      "op": "cvm_op", 
      "name": "broadcast_div3", 
      "attrs": {
        "flatten_data": "0", 
        "func_name": "broadcast_div_1", 
        "num_inputs": "2", 
        "num_outputs": "1", 
        "op_attrs": ""
      }, 
      "inputs": [[31, 0, 0], [37, 0, 0]]
    }, 
    {
      "op": "cvm_op", 
      "name": "clip2", 
      "attrs": {
        "flatten_data": "1", 
        "func_name": "clip_1", 
        "num_inputs": "1", 
        "num_outputs": "1", 
        "op_attrs": ""
      }, 
      "inputs": [[38, 0, 0]]
    }, 
    {
      "op": "cvm_op", 
      "name": "relu2", 
      "attrs": {
        "flatten_data": "1", 
        "func_name": "relu_1", 
        "num_inputs": "1", 
        "num_outputs": "1", 
        "op_attrs": ""
      }, 
      "inputs": [[39, 0, 0]]
    }, 
    {
      "op": "null", 
      "name": "_conv_cv3_weight", 
      "inputs": []
    }, 
    {
      "op": "null", 
      "name": "_conv_cv3_bias", 
      "inputs": []
    }, 
    {
      "op": "cvm_op", 
      "name": "conv2d3", 
      "attrs": {
        "flatten_data": "0", 
        "func_name": "conv2d_3", 
        "num_inputs": "3", 
        "num_outputs": "1", 
        "op_attrs": ""
      }, 
      "inputs": [[40, 0, 0], [41, 0, 0], [42, 0, 0]]
    }, 
    {
      "op": "cvm_op", 
      "name": "abs3", 
      "attrs": {
        "flatten_data": "1", 
        "func_name": "abs_1", 
        "num_inputs": "1", 
        "num_outputs": "1", 
        "op_attrs": ""
      }, 
      "inputs": [[43, 0, 0]]
    }, 
    {
      "op": "cvm_op", 
      "name": "max3", 
      "attrs": {
        "flatten_data": "0", 
        "func_name": "max_1", 
        "num_inputs": "1", 
        "num_outputs": "1", 
        "op_attrs": ""
      }, 
      "inputs": [[44, 0, 0]]
    }, 
    {
      "op": "cvm_op", 
      "name": "log23", 
      "attrs": {
        "flatten_data": "1", 
        "func_name": "log2", 
        "num_inputs": "1", 
        "num_outputs": "1", 
        "op_attrs": ""
      }, 
      "inputs": [[45, 0, 0]]
    }, 
    {
      "op": "cvm_op", 
      "name": "broadcast_sub3", 
      "attrs": {
        "flatten_data": "1", 
        "func_name": "broadcast_sub", 
        "num_inputs": "2", 
        "num_outputs": "1", 
        "op_attrs": ""
      }, 
      "inputs": [[46, 0, 0], [8, 0, 0]]
    }, 
    {
      "op": "cvm_op", 
      "name": "broadcast_max3", 
      "attrs": {
        "flatten_data": "1", 
        "func_name": "broadcast_max", 
        "num_inputs": "2", 
        "num_outputs": "1", 
        "op_attrs": ""
      }, 
      "inputs": [[47, 0, 0], [10, 0, 0]]
    }, 
    {
      "op": "cvm_op", 
      "name": "broadcast_left_shift3", 
      "attrs": {
        "flatten_data": "1", 
        "func_name": "broadcast_left_shift", 
        "num_inputs": "2", 
        "num_outputs": "1", 
        "op_attrs": ""
      }, 
      "inputs": [[4, 0, 0], [48, 0, 0]]
    }, 
    {
      "op": "cvm_op", 
      "name": "broadcast_div4", 
      "attrs": {
        "flatten_data": "0", 
        "func_name": "broadcast_div_1", 
        "num_inputs": "2", 
        "num_outputs": "1", 
        "op_attrs": ""
      }, 
      "inputs": [[43, 0, 0], [49, 0, 0]]
    }, 
    {
      "op": "cvm_op", 
      "name": "clip3", 
      "attrs": {
        "flatten_data": "1", 
        "func_name": "clip_1", 
        "num_inputs": "1", 
        "num_outputs": "1", 
        "op_attrs": ""
      }, 
      "inputs": [[50, 0, 0]]
    }, 
    {
      "op": "cvm_op", 
      "name": "relu3", 
      "attrs": {
        "flatten_data": "1", 
        "func_name": "relu_1", 
        "num_inputs": "1", 
        "num_outputs": "1", 
        "op_attrs": ""
      }, 
      "inputs": [[51, 0, 0]]
    }, 
    {
      "op": "null", 
      "name": "const_var2", 
      "inputs": []
    }, 
    {
      "op": "cvm_op", 
      "name": "broadcast_div5", 
      "attrs": {
        "flatten_data": "0", 
        "func_name": "broadcast_div_1", 
        "num_inputs": "2", 
        "num_outputs": "1", 
        "op_attrs": ""
      }, 
      "inputs": [[52, 0, 0], [53, 0, 0]]
    }, 
    {
      "op": "cvm_op", 
      "name": "broadcast_div2", 
      "attrs": {
        "flatten_data": "0", 
        "func_name": "broadcast_div_1", 
        "num_inputs": "2", 
        "num_outputs": "1", 
        "op_attrs": ""
      }, 
      "inputs": [[28, 0, 0], [53, 0, 0]]
    }, 
    {
      "op": "cvm_op", 
      "name": "elemwise_add0", 
      "attrs": {
        "flatten_data": "1", 
        "func_name": "elemwise_add", 
        "num_inputs": "2", 
        "num_outputs": "1", 
        "op_attrs": ""
      }, 
      "inputs": [[54, 0, 0], [55, 0, 0]]
    }, 
    {
      "op": "cvm_op", 
      "name": "max_pool2d1", 
      "attrs": {
        "flatten_data": "0", 
        "func_name": "max_pool2d_1", 
        "num_inputs": "1", 
        "num_outputs": "1", 
        "op_attrs": ""
      }, 
      "inputs": [[56, 0, 0]]
    }, 
    {
      "op": "cvm_op", 
      "name": "flatten0", 
      "attrs": {
        "flatten_data": "0", 
        "func_name": "flatten", 
        "num_inputs": "1", 
        "num_outputs": "1", 
        "op_attrs": ""
      }, 
      "inputs": [[57, 0, 0]]
    }, 
    {
      "op": "cvm_op", 
      "name": "flatten1", 
      "attrs": {
        "flatten_data": "0", 
        "func_name": "flatten_1", 
        "num_inputs": "1", 
        "num_outputs": "1", 
        "op_attrs": ""
      }, 
      "inputs": [[58, 0, 0]]
    }, 
    {
      "op": "null", 
      "name": "_dense_dense0_weight", 
      "inputs": []
    }, 
    {
      "op": "null", 
      "name": "_dense_dense0_bias", 
      "inputs": []
    }, 
    {
      "op": "cvm_op", 
      "name": "dense0", 
      "attrs": {
        "flatten_data": "0", 
        "func_name": "dense", 
        "num_inputs": "3", 
        "num_outputs": "1", 
        "op_attrs": ""
      }, 
      "inputs": [[59, 0, 0], [60, 0, 0], [61, 0, 0]]
    }, 
    {
      "op": "cvm_op", 
      "name": "abs4", 
      "attrs": {
        "flatten_data": "1", 
        "func_name": "abs_2", 
        "num_inputs": "1", 
        "num_outputs": "1", 
        "op_attrs": ""
      }, 
      "inputs": [[62, 0, 0]]
    }, 
    {
      "op": "cvm_op", 
      "name": "max4", 
      "attrs": {
        "flatten_data": "0", 
        "func_name": "max_2", 
        "num_inputs": "1", 
        "num_outputs": "1", 
        "op_attrs": ""
      }, 
      "inputs": [[63, 0, 0]]
    }, 
    {
      "op": "cvm_op", 
      "name": "log24", 
      "attrs": {
        "flatten_data": "1", 
        "func_name": "log2", 
        "num_inputs": "1", 
        "num_outputs": "1", 
        "op_attrs": ""
      }, 
      "inputs": [[64, 0, 0]]
    }, 
    {
      "op": "cvm_op", 
      "name": "broadcast_sub4", 
      "attrs": {
        "flatten_data": "1", 
        "func_name": "broadcast_sub", 
        "num_inputs": "2", 
        "num_outputs": "1", 
        "op_attrs": ""
      }, 
      "inputs": [[65, 0, 0], [8, 0, 0]]
    }, 
    {
      "op": "cvm_op", 
      "name": "broadcast_max4", 
      "attrs": {
        "flatten_data": "1", 
        "func_name": "broadcast_max", 
        "num_inputs": "2", 
        "num_outputs": "1", 
        "op_attrs": ""
      }, 
      "inputs": [[66, 0, 0], [10, 0, 0]]
    }, 
    {
      "op": "cvm_op", 
      "name": "broadcast_left_shift4", 
      "attrs": {
        "flatten_data": "1", 
        "func_name": "broadcast_left_shift", 
        "num_inputs": "2", 
        "num_outputs": "1", 
        "op_attrs": ""
      }, 
      "inputs": [[4, 0, 0], [67, 0, 0]]
    }, 
    {
      "op": "cvm_op", 
      "name": "broadcast_div6", 
      "attrs": {
        "flatten_data": "0", 
        "func_name": "broadcast_div_2", 
        "num_inputs": "2", 
        "num_outputs": "1", 
        "op_attrs": ""
      }, 
      "inputs": [[62, 0, 0], [68, 0, 0]]
    }, 
    {
      "op": "cvm_op", 
      "name": "clip4", 
      "attrs": {
        "flatten_data": "1", 
        "func_name": "clip_2", 
        "num_inputs": "1", 
        "num_outputs": "1", 
        "op_attrs": ""
      }, 
      "inputs": [[69, 0, 0]]
    }, 
    {
      "op": "cvm_op", 
      "name": "relu4", 
      "attrs": {
        "flatten_data": "1", 
        "func_name": "relu_2", 
        "num_inputs": "1", 
        "num_outputs": "1", 
        "op_attrs": ""
      }, 
      "inputs": [[70, 0, 0]]
    }, 
    {
      "op": "cvm_op", 
      "name": "flatten2", 
      "attrs": {
        "flatten_data": "0", 
        "func_name": "flatten_2", 
        "num_inputs": "1", 
        "num_outputs": "1", 
        "op_attrs": ""
      }, 
      "inputs": [[71, 0, 0]]
    }, 
    {
      "op": "null", 
      "name": "_dense_dense1_weight", 
      "inputs": []
    }, 
    {
      "op": "null", 
      "name": "_dense_dense1_bias", 
      "inputs": []
    }, 
    {
      "op": "cvm_op", 
      "name": "dense1", 
      "attrs": {
        "flatten_data": "0", 
        "func_name": "dense_1", 
        "num_inputs": "3", 
        "num_outputs": "1", 
        "op_attrs": ""
      }, 
      "inputs": [[72, 0, 0], [73, 0, 0], [74, 0, 0]]
    }, 
    {
      "op": "cvm_op", 
      "name": "abs5", 
      "attrs": {
        "flatten_data": "1", 
        "func_name": "abs_3", 
        "num_inputs": "1", 
        "num_outputs": "1", 
        "op_attrs": ""
      }, 
      "inputs": [[75, 0, 0]]
    }, 
    {
      "op": "cvm_op", 
      "name": "max5", 
      "attrs": {
        "flatten_data": "0", 
        "func_name": "max_3", 
        "num_inputs": "1", 
        "num_outputs": "1", 
        "op_attrs": ""
      }, 
      "inputs": [[76, 0, 0]]
    }, 
    {
      "op": "cvm_op", 
      "name": "log25", 
      "attrs": {
        "flatten_data": "1", 
        "func_name": "log2", 
        "num_inputs": "1", 
        "num_outputs": "1", 
        "op_attrs": ""
      }, 
      "inputs": [[77, 0, 0]]
    }, 
    {
      "op": "cvm_op", 
      "name": "broadcast_sub5", 
      "attrs": {
        "flatten_data": "1", 
        "func_name": "broadcast_sub", 
        "num_inputs": "2", 
        "num_outputs": "1", 
        "op_attrs": ""
      }, 
      "inputs": [[78, 0, 0], [8, 0, 0]]
    }, 
    {
      "op": "cvm_op", 
      "name": "broadcast_max5", 
      "attrs": {
        "flatten_data": "1", 
        "func_name": "broadcast_max", 
        "num_inputs": "2", 
        "num_outputs": "1", 
        "op_attrs": ""
      }, 
      "inputs": [[79, 0, 0], [10, 0, 0]]
    }, 
    {
      "op": "cvm_op", 
      "name": "broadcast_left_shift5", 
      "attrs": {
        "flatten_data": "1", 
        "func_name": "broadcast_left_shift", 
        "num_inputs": "2", 
        "num_outputs": "1", 
        "op_attrs": ""
      }, 
      "inputs": [[4, 0, 0], [80, 0, 0]]
    }, 
    {
      "op": "cvm_op", 
      "name": "broadcast_div7", 
      "attrs": {
        "flatten_data": "0", 
        "func_name": "broadcast_div_3", 
        "num_inputs": "2", 
        "num_outputs": "1", 
        "op_attrs": ""
      }, 
      "inputs": [[75, 0, 0], [81, 0, 0]]
    }, 
    {
      "op": "cvm_op", 
      "name": "clip5", 
      "attrs": {
        "flatten_data": "1", 
        "func_name": "clip_3", 
        "num_inputs": "1", 
        "num_outputs": "1", 
        "op_attrs": ""
      }, 
      "inputs": [[82, 0, 0]]
    }
  ], 
  "arg_nodes": [
    0, 
    1, 
    2, 
    4, 
    8, 
    10, 
    16, 
    17, 
    29, 
    30, 
    41, 
    42, 
    53, 
    60, 
    61, 
    73, 
    74
  ], 
  "node_row_ptr": [
    0, 
    1, 
    2, 
    3, 
    4, 
    5, 
    6, 
    7, 
    8, 
    9, 
    10, 
    11, 
    12, 
    13, 
    14, 
    15, 
    16, 
    17, 
    18, 
    19, 
    20, 
    21, 
    22, 
    23, 
    24, 
    25, 
    26, 
    27, 
    28, 
    29, 
    30, 
    31, 
    32, 
    33, 
    34, 
    35, 
    36, 
    37, 
    38, 
    39, 
    40, 
    41, 
    42, 
    43, 
    44, 
    45, 
    46, 
    47, 
    48, 
    49, 
    50, 
    51, 
    52, 
    53, 
    54, 
    55, 
    56, 
    57, 
    58, 
    59, 
    60, 
    61, 
    62, 
    63, 
    64, 
    65, 
    66, 
    67, 
    68, 
    69, 
    70, 
    71, 
    72, 
    73, 
    74, 
    75, 
    76, 
    77, 
    78, 
    79, 
    80, 
    81, 
    82, 
    83, 
    84
  ], 
  "heads": [[83, 0, 0]], 
  "attrs": {
    "storage_id": ["list_int", [
        8, 
        9, 
        10, 
        0, 
        11, 
        1, 
        2, 
        3, 
        12, 
        2, 
        13, 
        3, 
        2, 
        1, 
        0, 
        1, 
        14, 
        15, 
        0, 
        1, 
        3, 
        2, 
        3, 
        2, 
        3, 
        1, 
        0, 
        1, 
        0, 
        16, 
        17, 
        1, 
        4, 
        2, 
        3, 
        2, 
        3, 
        2, 
        4, 
        1, 
        4, 
        18, 
        19, 
        1, 
        4, 
        3, 
        2, 
        3, 
        2, 
        3, 
        4, 
        1, 
        4, 
        20, 
        1, 
        4, 
        0, 
        4, 
        1, 
        4, 
        21, 
        22, 
        5, 
        6, 
        2, 
        3, 
        2, 
        3, 
        2, 
        6, 
        5, 
        6, 
        5, 
        23, 
        24, 
        2, 
        3, 
        7, 
        3, 
        7, 
        3, 
        7, 
        3, 
        2]], 
    "dtype": ["list_int", [
        4, 
        4, 
        4, 
        4, 
        4, 
        4, 
        4, 
        4, 
        4, 
        4, 
        4, 
        4, 
        4, 
        4, 
        4, 
        4, 
        4, 
        4, 
        4, 
        4, 
        4, 
        4, 
        4, 
        4, 
        4, 
        4, 
        4, 
        4, 
        4, 
        4, 
        4, 
        4, 
        4, 
        4, 
        4, 
        4, 
        4, 
        4, 
        4, 
        4, 
        4, 
        4, 
        4, 
        4, 
        4, 
        4, 
        4, 
        4, 
        4, 
        4, 
        4, 
        4, 
        4, 
        4, 
        4, 
        4, 
        4, 
        4, 
        4, 
        4, 
        4, 
        4, 
        4, 
        4, 
        4, 
        4, 
        4, 
        4, 
        4, 
        4, 
        4, 
        4, 
        4, 
        4, 
        4, 
        4, 
        4, 
        4, 
        4, 
        4, 
        4, 
        4, 
        4, 
        4]], 
    "precision": ["list_int", [
        -1, 
        -1, 
        -1, 
        -1, 
        -1, 
        -1, 
        -1, 
        -1, 
        -1, 
        -1, 
        -1, 
        -1, 
        -1, 
        -1, 
        -1, 
        -1, 
        -1, 
        -1, 
        -1, 
        -1, 
        -1, 
        -1, 
        -1, 
        -1, 
        -1, 
        -1, 
        -1, 
        -1, 
        -1, 
        -1, 
        -1, 
        -1, 
        -1, 
        -1, 
        -1, 
        -1, 
        -1, 
        -1, 
        -1, 
        -1, 
        -1, 
        -1, 
        -1, 
        -1, 
        -1, 
        -1, 
        -1, 
        -1, 
        -1, 
        -1, 
        -1, 
        -1, 
        -1, 
        -1, 
        -1, 
        -1, 
        -1, 
        -1, 
        -1, 
        -1, 
        -1, 
        -1, 
        -1, 
        -1, 
        -1, 
        -1, 
        -1, 
        -1, 
        -1, 
        -1, 
        -1, 
        -1, 
        -1, 
        -1, 
        -1, 
        -1, 
        -1, 
        -1, 
        -1, 
        -1, 
        -1, 
        -1, 
        -1, 
        -1]], 
    "op_attrs": ["list_str", [
        "", 
        "", 
        "", 
        "{\"groups\": \"1\", \"dilation\": \"(1, 1)\", \"channels\": \"32\", \"layout\": \"NCHW\", \"kernel_layout\": \"OIHW\", \"kernel_size\": \"[3, 3]\", \"padding\": \"(1, 1)\", \"use_bias\": \"True\", \"strides\": \"(1, 1)\"}", 
        "", 
        "{}", 
        "{}", 
        "{}", 
        "", 
        "{}", 
        "", 
        "{}", 
        "{}", 
        "{}", 
        "{\"a_min\": \"-128\", \"a_max\": \"127\"}", 
        "{}", 
        "", 
        "", 
        "{\"groups\": \"1\", \"dilation\": \"(1, 1)\", \"channels\": \"32\", \"layout\": \"NCHW\", \"kernel_layout\": \"OIHW\", \"kernel_size\": \"[3, 3]\", \"padding\": \"(1, 1)\", \"use_bias\": \"True\", \"strides\": \"(1, 1)\"}", 
        "{}", 
        "{}", 
        "{}", 
        "{}", 
        "{}", 
        "{}", 
        "{}", 
        "{\"a_min\": \"-128\", \"a_max\": \"127\"}", 
        "{}", 
        "{\"strides\": \"(2, 2)\", \"pool_size\": \"[2, 2]\", \"ceil_mode\": \"False\", \"padding\": \"(0, 0)\"}", 
        "", 
        "", 
        "{\"groups\": \"1\", \"dilation\": \"(1, 1)\", \"channels\": \"32\", \"layout\": \"NCHW\", \"kernel_layout\": \"OIHW\", \"kernel_size\": \"[1, 1]\", \"padding\": \"(0, 0)\", \"use_bias\": \"True\", \"strides\": \"(1, 1)\"}", 
        "{}", 
        "{}", 
        "{}", 
        "{}", 
        "{}", 
        "{}", 
        "{}", 
        "{\"a_min\": \"-128\", \"a_max\": \"127\"}", 
        "{}", 
        "", 
        "", 
        "{\"groups\": \"1\", \"dilation\": \"(1, 1)\", \"channels\": \"32\", \"layout\": \"NCHW\", \"kernel_layout\": \"OIHW\", \"kernel_size\": \"[3, 3]\", \"padding\": \"(1, 1)\", \"use_bias\": \"True\", \"strides\": \"(1, 1)\"}", 
        "{}", 
        "{}", 
        "{}", 
        "{}", 
        "{}", 
        "{}", 
        "{}", 
        "{\"a_min\": \"-128\", \"a_max\": \"127\"}", 
        "{}", 
        "", 
        "{}", 
        "{}", 
        "{}", 
        "{\"strides\": \"(2, 2)\", \"pool_size\": \"[2, 2]\", \"ceil_mode\": \"False\", \"padding\": \"(0, 0)\"}", 
        "{}", 
        "{}", 
        "", 
        "", 
        "{\"units\": \"256\", \"use_bias\": \"True\"}", 
        "{}", 
        "{}", 
        "{}", 
        "{}", 
        "{}", 
        "{}", 
        "{}", 
        "{\"a_min\": \"-128\", \"a_max\": \"127\"}", 
        "{}", 
        "{}", 
        "", 
        "", 
        "{\"units\": \"10\", \"use_bias\": \"True\"}", 
        "{}", 
        "{}", 
        "{}", 
        "{}", 
        "{}", 
        "{}", 
        "{}", 
        "{\"a_min\": \"-128\", \"a_max\": \"127\"}"]], 
    "dltype": ["list_str", [
        "int32", 
        "int32", 
        "int32", 
        "int32", 
        "int32", 
        "int32", 
        "int32", 
        "int32", 
        "int32", 
        "int32", 
        "int32", 
        "int32", 
        "int32", 
        "int32", 
        "int32", 
        "int32", 
        "int32", 
        "int32", 
        "int32", 
        "int32", 
        "int32", 
        "int32", 
        "int32", 
        "int32", 
        "int32", 
        "int32", 
        "int32", 
        "int32", 
        "int32", 
        "int32", 
        "int32", 
        "int32", 
        "int32", 
        "int32", 
        "int32", 
        "int32", 
        "int32", 
        "int32", 
        "int32", 
        "int32", 
        "int32", 
        "int32", 
        "int32", 
        "int32", 
        "int32", 
        "int32", 
        "int32", 
        "int32", 
        "int32", 
        "int32", 
        "int32", 
        "int32", 
        "int32", 
        "int32", 
        "int32", 
        "int32", 
        "int32", 
        "int32", 
        "int32", 
        "int32", 
        "int32", 
        "int32", 
        "int32", 
        "int32", 
        "int32", 
        "int32", 
        "int32", 
        "int32", 
        "int32", 
        "int32", 
        "int32", 
        "int32", 
        "int32", 
        "int32", 
        "int32", 
        "int32", 
        "int32", 
        "int32", 
        "int32", 
        "int32", 
        "int32", 
        "int32", 
        "int32", 
        "int32"]], 
    "shape": ["list_shape", [
        [1, 1, 28, 28], 
        [32, 1, 3, 3], 
        [32], 
        [1, 32, 28, 28], 
        [1], 
        [1, 32, 28, 28], 
        [1], 
        [1], 
        [1], 
        [1], 
        [1], 
        [1], 
        [1], 
        [1, 32, 28, 28], 
        [1, 32, 28, 28], 
        [1, 32, 28, 28], 
        [32, 32, 3, 3], 
        [32], 
        [1, 32, 28, 28], 
        [1, 32, 28, 28], 
        [1], 
        [1], 
        [1], 
        [1], 
        [1], 
        [1, 32, 28, 28], 
        [1, 32, 28, 28], 
        [1, 32, 28, 28], 
        [1, 32, 14, 14], 
        [32, 32, 1, 1], 
        [32], 
        [1, 32, 14, 14], 
        [1, 32, 14, 14], 
        [1], 
        [1], 
        [1], 
        [1], 
        [1], 
        [1, 32, 14, 14], 
        [1, 32, 14, 14], 
        [1, 32, 14, 14], 
        [32, 32, 3, 3], 
        [32], 
        [1, 32, 14, 14], 
        [1, 32, 14, 14], 
        [1], 
        [1], 
        [1], 
        [1], 
        [1], 
        [1, 32, 14, 14], 
        [1, 32, 14, 14], 
        [1, 32, 14, 14], 
        [1], 
        [1, 32, 14, 14], 
        [1, 32, 14, 14], 
        [1, 32, 14, 14], 
        [1, 32, 7, 7], 
        [1, 1568], 
        [1, 1568], 
        [256, 1568], 
        [256], 
        [1, 256], 
        [1, 256], 
        [1], 
        [1], 
        [1], 
        [1], 
        [1], 
        [1, 256], 
        [1, 256], 
        [1, 256], 
        [1, 256], 
        [10, 256], 
        [10], 
        [1, 10], 
        [1, 10], 
        [1], 
        [1], 
        [1], 
        [1], 
        [1], 
        [1, 10], 
        [1, 10]]]
  }
}
